old/machine-learning-misc/pytorch-tutorial/model.ckpt (torch_old, 119148 bytes, 14 tensors)

layer1.0.weight f4 [16, 1, 5, 5]
0	0xbe474ce8	-0.19462931
1	0xbaf8f71d	-0.0018994544
2	0xbdfe2f7a	-0.12411399
3	0x3c5a546c	0.013325792
4	0x3e0300c2	0.12793258
5	0xbe4d9009	-0.20074476
6	0xbd0c1a03	-0.034204494
7	0x3e0d1283	0.13776593
8	0x3df57c7d	0.11986635
9	0x3dbb0481	0.091317184
10	0x3d9acd9a	0.07558747
11	0xbe718110	-0.2358439
12	0x3e12051a	0.14259759
13	0x3c44223d	0.011971054
14	0x3e5dbb24	0.2165342
15	0xbe28c872	-0.16482714
16	0xbd2d207e	-0.042267315
17	0xbe77dbc5	-0.24204929
18	0x3d43b963	0.04778422
19	0xbdb8d4cf	-0.09024965
20	0xbdc83bf6	-0.09777062
21	0xbe47b18e	-0.19501325
22	0xbc589c07	-0.013220794
23	0xbe287480	-0.16450691
24	0x3e0d1693	0.13778143
25	0x3dce9d52	0.100886
26	0x3db558b6	0.08854811
27	0xbde7a233	-0.11310234
28	0xbe5377b2	-0.20651129
29	0xbe51c1e2	-0.20484117
30	0xbd7fb708	-0.06243041
31	0xbe14c775	-0.14529212
32	0xbe80eb7b	-0.25179657
33	0x3d6dc0d9	0.058045242
34	0x3c951d04	0.018202312
35	0xbbe37a62	-0.0069420794
36	0xbe505318	-0.20344198
37	0x3c5a8bc8	0.0133389905
38	0x3e27c3eb	0.1638333
39	0x3c4d9d55	0.012549718
40	0xbe77288d	-0.24136563
41	0xbd8e57e4	-0.069503576
42	0x3d3f5ffc	0.046722397
43	0xbd4e323e	-0.050340883
44	0xbca5ab5c	-0.020223312
45	0xbe5b90a9	-0.21441902
46	0x3e39aa6e	0.1813142
47	0xbd7bd1bb	-0.06147931
48	0x3d837f47	0.064207606
49	0x3d1986c2	0.03748203
50	0x3e0e75ca	0.1391212
51	0xbcc66af2	-0.024220917
52	0x3ceda706	0.029010307
53	0x3e22a407	0.15882884
54	0xbe64dc02	-0.22349551
55	0x3d3c744b	0.046009343
56	0x3d3efc94	0.046627596
57	0xbd8a55bd	-0.067546345
58	0xbd786079	-0.06063888
59	0x3cbfdf54	0.02342192
60	0xbe32d4ba	-0.17463961
61	0x3e003c00	0.12522888
62	0xbcfdf09f	-0.030998526
63	0xbddd8e6f	-0.10818183
64	0x3e37d4a6	0.17952213
65	0x3c234945	0.009966199
66	0x3df83978	0.12120336
67	0x3e0c4501	0.13698198
68	0x3d7b4fd0	0.061355412
69	0xbe036bc2	-0.12834075
70	0xbdcffd2c	-0.101557106
71	0xbdd71371	-0.10501755
72	0x3c7af9a3	0.015318307
73	0xbc182e87	-0.009288437
74	0x3dcb90fa	0.099397615
75	0xbc5f4fda	-0.013629878
76	0x3da9f3ba	0.0829844
77	0xbcae459e	-0.02127343
78	0x3e28f0cb	0.16498105
79	0x3d11807b	0.03552292
80	0x3d9ec0f7	0.07751649
81	0xbda7d632	-0.081951514
82	0x3db3cf7c	0.08779809
83	0xbe43a6bb	-0.19106571
84	0xbe045202	-0.12921908
85	0xbe0e06dc	-0.13869804
86	0xbd97086e	-0.07374655
87	0xbe835ece	-0.25658268
88	0xbdc5a79a	-0.09651108
89	0xbdc32016	-0.09527604
90	0xbe7186d2	-0.23586586
91	0xbe19213c	-0.14954084
92	0xbd26092a	-0.040536083
93	0x3dc8c82b	0.09803804
94	0xbc9ec772	-0.019382212
95	0xbdf6ddff	-0.12054061
96	0x3df1913b	0.11795279
97	0x3ddfe0aa	0.10931523
98	0x3d0c3627	0.03423133
99	0x3de58ae0	0.11208129
100	0x3d7660a1	0.060150746
101	0x3c64c21f	0.013962298
102	0x3c91ec9e	0.017813023
103	0xbe340517	-0.17580067
104	0x3d4f58f4	0.05062194
105	0xbc9c6756	-0.019092243
106	0xbe086665	-0.1332031
107	0x3e00850f	0.12550758
108	0xbe480470	-0.19532943
109	0xbbbccabc	-0.0057614725
110	0x3db5a415	0.08869187
111	0xbdb1f7cf	-0.08689844
112	0xbdf73f00	-0.12072563
113	0xbc31388f	-0.010816707
114	0xbe83df1b	-0.25756153
115	0x3e148e8f	0.14507507
116	0xbd0f944c	-0.035053536
117	0x3e26314d	0.16229744
118	0xbdae907f	-0.08523654
119	0xbdab4077	-0.08361905
120	0x3e08d5cd	0.13362809
121	0xbbf7b620	-0.007559553
122	0x3e47cde9	0.19512142
123	0x3e085c0c	0.13316363
124	0x3cacb1e3	0.021080917
125	0xbd6a9119	-0.057267282
126	0x3d7641d9	0.06012139
127	0x3d1d8f92	0.038466997
128	0x3dda9e59	0.10674734
129	0xbd957a16	-0.07298677
130	0x3e126107	0.14294825
131	0x3e10eaef	0.1415212
132	0x3d3901fe	0.045167916
133	0x3d33a2dd	0.04385649
134	0xbd52abb6	-0.051433288
135	0x3e468e14	0.19390136
136	0x3d8b9b51	0.06816734
137	0xbde0bbb2	-0.109733
138	0xbdfc499e	-0.12318729
139	0xbe443397	-0.19160305
140	0x3de44001	0.1114502
141	0xbc8073e0	-0.015680254
142	0xbdf32a51	-0.118733056
143	0xbd46efdb	-0.048568588
144	0xbde7f791	-0.113265164
145	0x3e12b8f2	0.14328364
146	0xbcb7394d	-0.02236619
147	0xbd90e304	-0.0707455
148	0xbe0afd69	-0.13573231
149	0xbde8c505	-0.113657035
150	0xbc48891e	-0.012239723
151	0x3cd39e54	0.025832333
152	0xbe148a99	-0.14505996
153	0xbe1cf5ac	-0.15328091
154	0xbc974a18	-0.018467948
155	0x3b353a1d	0.0027653046
156	0xbd7f8c89	-0.062389884
157	0xbd197418	-0.03746423
158	0x3dc1305a	0.094330505
159	0x3cda5d28	0.026655748
160	0x3e14cf57	0.14532219
161	0xbe30792a	-0.1723372
162	0xbd92f7d4	-0.07176176
163	0xbd9cec4f	-0.0766226
164	0x3e1afaf2	0.1513479
165	0x3e3b9ed2	0.18322304
166	0xbe637ef7	-0.22216402
167	0xbd2ee5e9	-0.04269973
168	0x3df3c6fe	0.11903189
169	0xbdfe060f	-0.12403499
170	0xbd432ceb	-0.04765026
171	0xbe086c89	-0.13322653
172	0x3c8fecb2	0.01756892
173	0x3e3d0cda	0.18461934
174	0xbdfce5c2	-0.1234851
175	0x3d87cb05	0.0663052
176	0xbda9c78a	-0.08290012
177	0x3d993ba1	0.074820764
178	0xbe1826d9	-0.14858569
179	0xbc85f7a2	-0.016353432
180	0x3ceff96a	0.029293735
181	0xbcd31088	-0.025764719
182	0xbe41810e	-0.18896887
183	0xbd80429c	-0.06262705
184	0xbd0d5b22	-0.03451074
185	0xbdf5dc76	-0.1200494
186	0xbbac3548	-0.005255375
187	0xbe34cceb	-0.17656295
188	0x3cfefb43	0.03112567
189	0x3e036c8d	0.12834378
190	0xbde23310	-0.11044896
191	0xbe26a09d	-0.16272207
192	0x3e05238f	0.13001846
193	0xbdd18498	-0.102303684
194	0x3e7821cb	0.24231641
195	0xbe0e7b67	-0.13914262
196	0xbdbc33bf	-0.09189557
197	0xbde4d367	-0.11173134
198	0xbdb73626	-0.08945875
199	0x3e1927dc	0.14956611
200	0x3d9bf79e	0.076155886
201	0x3d88b7d7	0.0667569
202	0xbd99113e	-0.07473992
203	0xbd0f1b5a	-0.034938194
204	0xbe449599	-0.19197692
205	0xbdd1f5be	-0.1025195
206	0x3dd591e2	0.104282156
207	0x3be49dbe	0.006976812
208	0xbe1dc623	-0.15407614
209	0xbd6c32ba	-0.057665564
210	0x3e6c7f8b	0.23095529
211	0x3e5068b6	0.20352444
212	0x3d0dcf57	0.034621563
213	0x3d2e19a3	0.042504918
214	0xbe55d84f	-0.20883296
215	0xbdefbee9	-0.11706335
216	0xbb545779	-0.003240077
217	0xbe354f6e	-0.17706081
218	0xbe857209	-0.26063564
219	0xbcd708e5	-0.026249358
220	0xbe44d801	-0.19223024
221	0xbe6b85ce	-0.23000261
222	0xbe550a30	-0.20804667
223	0x3da0300d	0.07821665
224	0x3d2e14bc	0.042500243
225	0xbc71bf2a	-0.01475505
226	0x3c92cf3c	0.017921083
227	0x3e11347d	0.14180179
228	0x3d44c88b	0.048042815
229	0x3ba880a4	0.0051422883
230	0x3ca449bb	0.020054689
231	0x3decaade	0.11556028
232	0xbd9b88bd	-0.0759444
233	0xbd92b6f2	-0.071638
234	0x3e4ccc11	0.1999972
235	0xbe0b5c5c	-0.13609451
236	0x3deca558	0.11554974
237	0xbd2383c9	-0.039920602
238	0xbdd1c942	-0.10243465
239	0xbd139680	-0.0360322
240	0xbcc3f330	-0.023919672
241	0xbe057ea2	-0.13036588
242	0x3c0ca943	0.008585277
243	0x3cbc0ee9	0.022956328
244	0xbe278188	-0.16358006
245	0x3dfef1f1	0.124484904
246	0xbe2969c3	-0.16544251
247	0x3e3f038b	0.18653695
248	0x3e2395c9	0.15975107
249	0xbe4be071	-0.19909836
250	0x3e25c98c	0.16190165
251	0x3dbdd03d	0.09268234
252	0x3d6c2c5c	0.057659492
253	0x3da83d25	0.082147874
254	0x3e61cef5	0.22051604
255	0xbcc54ea4	-0.02408535

layer1.0.bias f4 [16]
0	0xbe81baf9	-0.2533796
1	0x3b430036	0.0029754764
2	0x3dd93847	0.10606437
3	0x3e27659c	0.16347355
4	0xbdd04969	-0.10170252
5	0x3e908b70	0.28231382
6	0x3dd088b2	0.101823226
7	0x3d455ce1	0.04818428
8	0xbe5fc4c8	-0.2185241
9	0x3e0ebc5b	0.1393904
10	0x3e25d311	0.16193797
11	0x3e32dadd	0.17466302
12	0xbcd93efa	-0.026519287
13	0xbda643ff	-0.08118438
14	0x3da9e986	0.08296494
15	0xbdb59881	-0.088669784

layer1.1.weight f4 [16]
0	0x3ec5a035	0.3859879
1	0x3f47dfd8	0.78075933
2	0x3e2cdac4	0.16880327
3	0x3f55df4a	0.8354384
4	0x3e2ca1cc	0.16858596
5	0x3ec5206a	0.38501292
6	0x3f44ffc6	0.7695278
7	0x3f3c33f8	0.735168
8	0x3f469bd5	0.7758153
9	0x3e650718	0.22365987
10	0x3e8ce3fe	0.27517694
11	0x3f30e775	0.69103175
12	0x3eb91ef0	0.36156416
13	0x3f03c937	0.51478904
14	0x3e4caee1	0.19988586
15	0x3eb21d40	0.3478794

layer1.1.bias f4 [16]
0	0xbe09c0cc	-0.13452452
1	0xbe754069	-0.23950352
2	0xbe3c2b80	-0.18375969
3	0xbe50a97e	-0.20377156
4	0xbd4927fa	-0.04911039
5	0xbe126998	-0.14298093
6	0xbe544536	-0.20729527
7	0xbe417a10	-0.1889422
8	0xbe5d7b26	-0.21629009
9	0xbe4840ec	-0.19556016
10	0xbd9a809d	-0.07544062
11	0xbdf9d592	-0.121989384
12	0xbde178d5	-0.11009375
13	0xbd6f45b9	-0.058416102
14	0xbe0e5f48	-0.13903534
15	0xbdc2f015	-0.09518448

layer1.1.running_mean f4 [16]
0	0xbead3142	-0.33826643
1	0xbe0b6d4a	-0.13615909
2	0x3e046617	0.12929569
3	0x3d91cc3f	0.07119035
4	0xbdda916c	-0.10672268
5	0x3e84311c	0.25818717
6	0x3d197c25	0.03747191
7	0xbd613d45	-0.05499007
8	0xbebc256a	-0.36747295
9	0x3e0dce69	0.1384827
10	0x3dd6de3a	0.10491605
11	0x3dca2c9e	0.09871791
12	0xbcedda2f	-0.029034702
13	0xbe20833f	-0.15675066
14	0x3daf207c	0.08551118
15	0xbda1f7cf	-0.07908594

layer1.1.running_var f4 [16]
0	0x3d8f76de	0.07005094
1	0x3da7feac	0.08202872
2	0x3bcfaf3f	0.0063380296
3	0x3d6e1a47	0.05813053
4	0x3ce816a8	0.028331116
5	0x3d939b8e	0.07207404
6	0x3cd09773	0.025462842
7	0x3d8c9b80	0.06865597
8	0x3dd42d94	0.10360256
9	0x3c1d00dc	0.009582724
10	0x3d98d640	0.0746274
11	0x3cd8426e	0.026398864
12	0x3cdba4cc	0.02681198
13	0x3d41a929	0.047280464
14	0x3c9bf091	0.01903561
15	0x3caa83a2	0.02081472

layer2.0.weight f4 [32, 16, 5, 5]
0	0x3d0b11c4	0.03395249
1	0x3be51333	0.006990814
2	0xbd3bb8f9	-0.0458307
3	0x3cb22189	0.021744506
4	0xbdbd9cd5	-0.09258429
5	0xbc276f02	-0.010219337
6	0xbbaf9a04	-0.0053589363
7	0x3dc1aa29	0.094562836
8	0x39c414dd	0.00037399578
9	0xbd989785	-0.07450775
10	0xbcb6f30c	-0.02233269
11	0xbc52e7cc	-0.0128726475
12	0x3d218390	0.03943211
13	0x3a85479e	0.0010168438
14	0x3c78ecf6	0.015193215
15	0xbbde2268	-0.006779004
16	0xbd7ee7b9	-0.062232707
17	0xbcaf85d5	-0.02142612
18	0x3d573111	0.052537028
19	0x3b910dae	0.0044266796
20	0xbd647932	-0.055779643
21	0xbd127f6b	-0.035766046
22	0x3ca24741	0.019809367
23	0x3d2eda61	0.04268873
24	0xbb124891	-0.0022321085
25	0xbd1b6aa9	-0.037943516
26	0xbd6c06a6	-0.057623528
27	0xbc0e2497	-0.008675716
28	0xbcb2e2b3	-0.021836614
29	0x3d8c2eb8	0.068448484
30	0xbceabb54	-0.028653778
31	0xbabaee3a	-0.0014261671
32	0x3c58a08e	0.013221873
33	0x3cb246fe	0.021762367
34	0x3d5af001	0.05345154
35	0x3c037cd9	0.0080253715
36	0xbd881b52	-0.06645836
37	0x3a152f48	0.00056909444
38	0xbc075f53	-0.008262473
39	0xba449ddc	-0.00075003295
40	0xbd8ca953	-0.068682335
41	0xbd4cd3a7	-0.050006535
42	0x3c34257c	0.010995265
43	0xbc2739b2	-0.010206627
44	0x3ba242cd	0.004951811
45	0xbd97ebf7	-0.074180536
46	0x3bf2b56d	0.0074068815
47	0xbcfed2b1	-0.031106325
48	0xbe052a7f	-0.13004492
49	0xbe0c7a59	-0.13718547
50	0xbdac4b79	-0.08412833
51	0xbcdd0814	-0.026981391
52	0xbd0af21f	-0.03392231
53	0xbcb63494	-0.022241868
54	0xbce9e2fa	-0.028550614
55	0xbd52d6c1	-0.051474337
56	0xbda1a756	-0.07893245
57	0xbc5ee8d0	-0.0136053115
58	0xb990a1ce	-0.00027586374
59	0x3d16fd35	0.03686257
60	0xbcff3590	-0.03115347
61	0xbd9faa22	-0.07796122
62	0xbd32dda4	-0.043668404
63	0xbd976900	-0.07393074
64	0xbced8ddf	-0.028998313
65	0x3d80432d	0.06262813
66	0xbd4bb9d4	-0.049737766
67	0xbdac3cb6	-0.08410017
68	0xbd4dcbd5	-0.050243217
69	0xbd57bbde	-0.0526694
70	0x3d9a7d6e	0.07543455
71	0x3d916054	0.07098451
72	0xbd43ba08	-0.047784835
73	0x3b0374a1	0.002005853
74	0xbc58af80	-0.013225436
75	0xbcf53bfd	-0.029935831
76	0xbd6f4a53	-0.05842049
77	0xbc49bfdf	-0.012313812
78	0xbb2555e2	-0.0025228192
79	0x3d91969a	0.07108803
80	0x3d1f7b4f	0.038935956
81	0xbca8c18f	-0.020600108
82	0xbc1c5e75	-0.009544005
83	0x3d4493d3	0.04799254
84	0x3da60d2a	0.081079796
85	0xbd8a3d21	-0.06749941
86	0xbd0f0bb4	-0.03492327
87	0xbd8d5e13	-0.06902709
88	0xbcd13831	-0.02553949
89	0xbaf904eb	-0.0018998658
90	0xbddf7278	-0.10910505
91	0xbdd184fb	-0.10230442
92	0xbde2886a	-0.11061175
93	0xbdcb2758	-0.099196136
94	0xbd4745f2	-0.04865069
95	0xbd513491	-0.05107552
96	0x3cc4ced3	0.024024403
97	0xbd3ff3d2	-0.046863385
98	0xbe3140d6	-0.17309889
99	0xbd8a6974	-0.06758395
100	0xbdb261c6	-0.08710055
101	0xbc7be21b	-0.015373732
102	0xbc1f3d8d	-0.009719265
103	0xbd909c63	-0.070610784
104	0xbd80ea78	-0.06294721
105	0xbd062c7c	-0.032757267
106	0xbdd17853	-0.10228028
107	0xbd246fe1	-0.04014576
108	0xbd47316c	-0.048631117
109	0xbd469874	-0.048485234
110	0x3d1a09f2	0.03760714
111	0x3c80e06a	0.015732009
112	0xbdaec47f	-0.085335724
113	0x3b509464	0.003182673
114	0xbcd34613	-0.02579025
115	0x3dce9027	0.10086089
116	0x3d30be98	0.043150514
117	0x3d18298d	0.037149
118	0x3d674699	0.05646381
119	0x3d862f5f	0.06552004
120	0x3d5cbdcb	0.05389194
121	0x3ceddbcc	0.029035471
122	0x3d72767f	0.059195038
123	0x3db513a1	0.088416345
124	0x3e064942	0.13113883
125	0xbd9b57b8	-0.075850904
126	0x3cfc4a21	0.030797066
127	0x3d46c842	0.048530824
128	0x3da54e27	0.08071547
129	0x3da7a61c	0.0818598
130	0x3c9bc1c3	0.019013291
131	0x3cbaf6db	0.022822788
132	0x3c596f17	0.013271115
133	0x3d82ee37	0.06393092
134	0x3d80e0c8	0.062928736
135	0x3ce08f77	0.02741216
136	0xbcb1cd4f	-0.021704344
137	0x3d9ffa6f	0.07811438
138	0x3d5145d7	0.051091995
139	0x3cc90eb4	0.024543144
140	0xbc6d5d1a	-0.014487529
141	0xbd963157	-0.073336296
142	0x3d36e55d	0.04465233
143	0x3d31f5ff	0.04344749
144	0xbd383649	-0.044973645
145	0xbc820f99	-0.015876578
146	0xbc72696d	-0.014795643
147	0x3ce4f58c	0.027949117
148	0xbd8af93a	-0.067858174
149	0xbde2b6c3	-0.11070015
150	0x3c52651e	0.012841491
151	0x3cea7979	0.028622376
152	0x3ca6e4ac	0.020372711
153	0x3b991944	0.0046722014
154	0x3bd8d6b0	0.0066173896
155	0x3d211e27	0.039335396
156	0x3d6402bf	0.05566668
157	0xbba79ebe	-0.005115359
158	0x3ccd238b	0.025041362
159	0x3d87fcab	0.066399895
160	0xbab74fc0	-0.0013985559
161	0xbce85362	-0.028360073
162	0x3a99834b	0.0011712102
163	0x3bf83683	0.0075748577
164	0xbd8720ea	-0.06598075
165	0xbd061d68	-0.032742888
166	0xbd063a78	-0.032770604
167	0xbc9e1003	-0.019294744
168	0xbc7ad6a7	-0.015309966
169	0xbcaf8d5b	-0.021429708
170	0x3dc99400	0.09842682
171	0x3d46f0f1	0.048569623
172	0xbccb8f1e	-0.024848517
173	0xbc7634c9	-0.015027233
174	0xbcd0970f	-0.025462655
175	0x3d8e5dbd	0.06951473
176	0x3c86a35d	0.01643532
177	0x3d3f3d5c	0.046689376
178	0x3c4f6281	0.0126577625
179	0x3ca4b395	0.020105163
180	0x3d41f662	0.04735411
181	0x3da6ddc2	0.08147766
182	0x3d909b43	0.07060864
183	0x3cdf0faa	0.027229149
184	0x3c74628b	0.014916073
185	0xbc887aa9	-0.016660051
186	0xb91c6366	-0.00014914348
187	0x3d3e47f2	0.04645533
188	0x3d27319c	0.040818796
189	0x3b0b655d	0.0021270134
190	0xbcc378a3	-0.023861235
191	0xbd103d6f	-0.035214838
192	0x3d52af2a	0.05143658
193	0xbdb50819	-0.08839435
194	0x3c649487	0.013951427
195	0xbdad4cc4	-0.084619075
196	0xbd7336be	-0.059378378
197	0xbb131ff4	-0.0022449465
198	0xbd8433af	-0.0645517
199	0xbdf89404	-0.12137607
200	0x3cee25f8	0.02907084
201	0xbcf80380	-0.030275106
202	0x3ceb193e	0.02869856
203	0xbcc7e39a	-0.024400521
204	0x3da152d0	0.07877123
205	0x3b65d22f	0.0035067906
206	0x3d98ca71	0.07460488
207	0x3de4ef58	0.11178464
208	0x3dcff9ac	0.10155043
209	0x3d5cbbde	0.0538901
210	0xbd930cfa	-0.071802095
211	0xbc03c4f7	-0.008042566
212	0x3daa2aa8	0.08308917
213	0x3cc6691f	0.024220048
214	0x3d2c21b9	0.042024348
215	0x3cb49906	0.022045624
216	0x3d72b81f	0.059257623
217	0x3c228713	0.0099198995
218	0xbd12c591	-0.035832945
219	0xbd875984	-0.066088706
220	0x3d8a36d5	0.0674874
221	0xbb909c8e	-0.004413194
222	0x3c387047	0.011257238
223	0xbcb5ae0b	-0.022177717
224	0xbd95685e	-0.07295297
225	0x3da45cb6	0.08025496
226	0x3c0993c8	0.00839705
227	0x3d35f295	0.044420797
228	0xbc3ca82c	-0.011514705
229	0xbc0d7998	-0.008634947
230	0xbd8388e9	-0.06422598
231	0xbd898fff	-0.06716918
232	0x3bf99a23	0.0076172515
233	0x3cb9b9fb	0.02267169
234	0x3cc1a80d	0.023639703
235	0xbd1c8307	-0.038210895
236	0x3cd3b0d8	0.025841162
237	0x3d6c0955	0.057626087
238	0x3c8a5108	0.016884342
239	0xbc050797	-0.008119485
240	0xbd1c72e6	-0.038195513
241	0xbc134747	-0.008989162
242	0x3d4b03f1	0.049564306
243	0x3cb0fe24	0.021605559
244	0xbcbd5eb3	-0.023116445
245	0x3d3fe505	0.04684927
246	0x3c19dbe1	0.009390802
247	0x3b5b3085	0.0033445668
248	0xbd8d6ae6	-0.06905155
249	0x3d27dce4	0.040982142
250	0x3dcf95ef	0.101360194
251	0x3dc12b92	0.094321385
252	0x3bcc5598	0.0062357895
253	0xbdb5a925	-0.088701524
254	0xbd0fc655	-0.035101254
255	0x3d4e6334	0.050387576

layer2.0.bias f4 [32]
0	0x3cd08ef6	0.025458794
1	0xbd5e4f04	-0.054274574
2	0x3c1182aa	0.00888125
3	0x3d89719e	0.06711124
4	0x3d21f809	0.039543185
5	0xbd1a705b	-0.037704807
6	0x3bf43e91	0.0074537476
7	0xbccfa396	-0.025346559
8	0xbc697ebb	-0.014251406
9	0xbc75c6ab	-0.015000979
10	0x3b1ae05b	0.0023632261
11	0xbc9946d2	-0.018710528
12	0x3d1d1eb2	0.03835935
13	0x3ca55e03	0.02018643
14	0xbd06af43	-0.032881986
15	0xbd20e77c	-0.03928326
16	0xbd313d58	-0.043271393
17	0x39c209be	0.00037009822
18	0xbce04527	-0.027376724
19	0xbc2775fa	-0.010220999
20	0x3d6accb7	0.057324138
21	0xbd4fd63e	-0.050741427
22	0xbd0a1e03	-0.033720028
23	0xbc6b0ec3	-0.014346781
24	0xbd34ac6a	-0.04410974
25	0xbcce9351	-0.02521673
26	0x3b23b4db	0.0024979624
27	0xbbc4e609	-0.0060088676
28	0x3ca2eff0	0.019889802
29	0x39e9d905	0.00044602915
30	0xbc30072d	-0.010743898
31	0x3cf26769	0.029590325

layer2.1.weight f4 [32]
0	0x3f86aad4	1.0520883
1	0x3f88fdfb	1.0702509
2	0x3f929e13	1.145449
3	0x3ee93117	0.45545265
4	0x3f030133	0.51173705
5	0x3ec99532	0.3937164
6	0x3f7391a2	0.95144093
7	0x3eb92b63	0.36165914
8	0x3f4328ba	0.7623402
9	0x3f878d98	1.0590086
10	0x3f32a9a2	0.6979009
11	0x3f68763c	0.9080541
12	0x3f758a7b	0.9591443
13	0x3f6ee14b	0.9331252
14	0x3f15f22e	0.5857266
15	0x3eac8b7e	0.33700174
16	0x3f485c41	0.7826577
17	0x3ea566c0	0.32304955
18	0x3f7c6efe	0.9860686
19	0x3f837233	1.0269226
20	0x3f6cf062	0.92554295
21	0x3f8ab181	1.083542
22	0x3f441a5b	0.76602715
23	0x3f003aa1	0.5008946
24	0x3f9d9a6f	1.2312754
25	0x3ee508be	0.44733232
26	0x3f37ee20	0.71847725
27	0x3f383a7f	0.7196426
28	0x3f818cfa	1.0121148
29	0x3f855b32	1.0418456
30	0x3f86adff	1.0521849
31	0x3f2421d1	0.641141

layer2.1.bias f4 [32]
0	0xbe684177	-0.22681223
1	0xbdad0fb9	-0.084502645
2	0xbd00f352	-0.03148205
3	0xbda37f0c	-0.07983217
4	0xbd64d037	-0.05586263
5	0xbdb172d2	-0.08664478
6	0xbe2afea5	-0.16698702
7	0xbe08ad8a	-0.1334745
8	0xbdab260b	-0.083568655
9	0xbddac1e2	-0.106815115
10	0xbcdc2032	-0.02687082
11	0xbd8c852a	-0.068613365
12	0xbddade77	-0.10686963
13	0xbd961a66	-0.07329254
14	0xbd9ead93	-0.077479504
15	0xbd6ccda5	-0.057813305
16	0xbdb7333c	-0.08945319
17	0xbe0d573d	-0.1380281
18	0xbda1f136	-0.079073355
19	0xbd698495	-0.057011206
20	0xbd9211ee	-0.07132326
21	0xbdb0c17c	-0.08630654
22	0xbdaeb22a	-0.08530076
23	0xbdff9666	-0.12479858
24	0xbdb8fc8e	-0.09032546
25	0xbdb6a599	-0.08918304
26	0xbd88ab9b	-0.06673356
27	0xbdb721bd	-0.08941982
28	0x3a970283	0.0011521134
29	0xbda1ad75	-0.078944124
30	0xbcff1ad1	-0.031140717
31	0xbda79719	-0.081831165

layer2.1.running_mean f4 [32]
0	0x3d26ac52	0.04069168
1	0xbd5548b7	-0.0520713
2	0x3c69033a	0.014221961
3	0x3e586328	0.21131575
4	0xbcf0028b	-0.029298088
5	0xbe7a6df4	-0.24456006
6	0x3e2833c4	0.16425997
7	0xbccc40ac	-0.024933182
8	0xbe561e75	-0.20910056
9	0xbe31a648	-0.17348588
10	0xbd109e4a	-0.035307206
11	0xbe48ae59	-0.19597758
12	0x3cc608c8	0.02417411
13	0xbe2e3bed	-0.17015047
14	0xbe743343	-0.2384768
15	0xbe8a85fa	-0.2705534
16	0x3dedfefc	0.116209
17	0xbebb962d	-0.36638013
18	0xbe5cb3ce	-0.21552965
19	0xbd974128	-0.073854744
20	0x3e5cb0dc	0.21551841
21	0x3e4ce777	0.20010172
22	0xbe461ee8	-0.19347727
23	0xbdfbc526	-0.122934625
24	0xbe41b71d	-0.18917508
25	0x3ead9546	0.3390295
26	0xbc972249	-0.018448966
27	0xbd85f56c	-0.06540951
28	0x3eb4acc6	0.35288066
29	0x3e4cb354	0.19990283
30	0x3d0bac6f	0.034099992
31	0xbd6902f5	-0.056887586

layer2.1.running_var f4 [32]
0	0x3df346c5	0.118787326
1	0x3e061521	0.13093998
2	0x3dda4230	0.106571555
3	0x3dfb8328	0.122808754
4	0x3de2199f	0.11040043
5	0x3e62bb6f	0.22141813
6	0x3e2dd8c4	0.16977221
7	0x3e0ab193	0.13544302
8	0x3da90cf9	0.082544275
9	0x3e05193d	0.12997909
10	0x3dbcbd8b	0.0921584
11	0x3d9e4cbe	0.07729481
12	0x3e05afbf	0.13055323
13	0x3daf0425	0.085457124
14	0x3db9b55a	0.09067793
15	0x3e3f43de	0.18678233
16	0x3df9629f	0.121770136
17	0x3e0ec457	0.13942085
18	0x3defc7af	0.117080085
19	0x3df71bb9	0.120658346
20	0x3e09ad47	0.13445006
21	0x3df65eb0	0.12029779
22	0x3d97f405	0.0741959
23	0x3e164cd3	0.14677744
24	0x3e1092db	0.14118521
25	0x3e051a7c	0.12998384
26	0x3e082c91	0.1329825
27	0x3de06527	0.10956793
28	0x3dbe34a1	0.09287382
29	0x3db2b2d1	0.08725513
30	0x3deb2a81	0.11482716
31	0x3e09c664	0.13454586

fc.weight f4 [10, 1568]
0	0xbcaf4f97	-0.021400256
1	0xbc8a04cf	-0.016847996
2	0xbd09a93d	-0.033608664
3	0x3b84268c	0.0040329155
4	0x3d7b19cb	0.061303895
5	0x3c2dd0c0	0.010608852
6	0x3d9607ff	0.07325744
7	0xbd23c199	-0.03997955
8	0xbc565437	-0.013081602
9	0xbd54051a	-0.051762678
10	0x3c366a24	0.011133704
11	0x3cfc87d7	0.030826492
12	0x3dbe90a8	0.09304935
13	0x3da9dc2f	0.0829395
14	0x3d4904fa	0.04907701
15	0xbd063182	-0.032762058
16	0xbd8147fa	-0.063125566
17	0xbd570252	-0.052492447
18	0xbd499360	-0.049212813
19	0xbc58493e	-0.013201056
20	0x3d7378aa	0.059441246
21	0x3d02fac2	0.031977423
22	0x3d2b5d80	0.041837215
23	0xbc92948d	-0.0178931
24	0xbd27deba	-0.040983893
25	0x3c8e6824	0.017383642
26	0xbe08e3db	-0.1336817
27	0xbdae82f6	-0.085210726
28	0x3c3a7e7d	0.011382696
29	0x3d024950	0.031808197
30	0xbaf08e2a	-0.0018352915
31	0xbce50a75	-0.027959088
32	0x3b81cb5f	0.0039610113
33	0xbde37308	-0.11105925
34	0xbe0379cc	-0.1283943
35	0xbcdc69af	-0.026905863
36	0xbd4d343f	-0.050098654
37	0xbc643526	-0.013928687
38	0x3ca80b4f	0.020513205
39	0x3b8670a8	0.004102785
40	0xbd789b29	-0.060694847
41	0xbdb5416e	-0.0885037
42	0x3c0f99f5	0.008764734
43	0xbc594a95	-0.013262411
44	0xbaf6f2a4	-0.0018840623
45	0xbd13d409	-0.036090884
46	0xbd31217f	-0.043244835
47	0xbd8162d8	-0.06317681
48	0xbde1ff2d	-0.11034999
49	0xbb56bafb	-0.0032765258
50	0xbda3bdce	-0.07995187
51	0xbe0c112e	-0.13678429
52	0x3d540515	0.05176266
53	0x3ca9696a	0.020680148
54	0x3d0e91e2	0.034807093
55	0xbd40a30f	-0.047030505
56	0x3cf283c6	0.02960385
57	0xbd9b9f77	-0.07598775
58	0xbd811ea2	-0.06304671
59	0x3a96e973	0.0011513665
60	0xbcb74627	-0.022372318
61	0x3b2b7364	0.0026161307
62	0xbd5b6e80	-0.053572178
63	0x3b90e717	0.0044220793
64	0x3d9763a7	0.07392054
65	0xbd81fcaa	-0.0634702
66	0x3d4bc81f	0.049751397
67	0x3c840007	0.016113294
68	0x3d0610ef	0.032730993
69	0xbd0f2ae2	-0.034953006
70	0x3d1a2fff	0.03764343
71	0x3d8de1a3	0.069278024
72	0xbd1ebb80	-0.038753033
73	0xbd0f2c63	-0.03495444
74	0xbdcf74ad	-0.10129676
75	0x3d7e6ab3	0.062113475
76	0x3d0d2ed0	0.034468472
77	0x3d268188	0.040650874
78	0x3b406550	0.0029357262
79	0xbda497a2	-0.08036734
80	0xbd7543db	-0.059879165
81	0x3c3b3bf9	0.011427873
82	0x3d18ba3f	0.037286993
83	0x3d4b74ec	0.049672052
84	0xbac983f4	-0.0015374408
85	0x3d0c08e4	0.034188166
86	0x3cc3f5a1	0.023920836
87	0x3ce7a698	0.02827768
88	0x3d26976b	0.040671747
89	0xbc2193b4	-0.009861875
90	0xbd227749	-0.03966454
91	0xbd058aea	-0.032603182
92	0x3d7224a1	0.059116963
93	0x3ca4b59b	0.020106127
94	0x3d66e32f	0.056369003
95	0x3c9bb1a3	0.019005602
96	0xbc87f71c	-0.016597323
97	0xbd80f852	-0.06297363
98	0x3b8e5bb9	0.0043444303
99	0xbc9d8bb1	-0.01923165
100	0xbc923a55	-0.01785008
101	0xbcb00c12	-0.02149013
102	0xbcb606e9	-0.022220092
103	0x3b8c9dd7	0.004291277
104	0xbc33dbc6	-0.010977691
105	0x3c30efab	0.010799329
106	0x3c94a242	0.018143777
107	0x3bc9c7ed	0.006157866
108	0xbc720970	-0.014772758
109	0xbdd1bb92	-0.10240854
110	0xbcf925aa	-0.030413467
111	0x3d1884ac	0.0372359
112	0xbd7f922b	-0.062395256
113	0xbd93ca55	-0.07216326
114	0xbdcf9ad3	-0.10136952
115	0x3b52b24e	0.0032149735
116	0xbd4b7975	-0.049676377
117	0xbd56a566	-0.05240383
118	0x3d51f0d4	0.051255062
119	0xbd8ad401	-0.06778718
120	0xbdbcab47	-0.09212356
121	0xbe28cbea	-0.16484037
122	0xbdd0762c	-0.101787895
123	0xbc932629	-0.017962532
124	0xbdcfd1ff	-0.101474755
125	0xbd7c8c53	-0.06165726
126	0x3c0b8b0e	0.00851704
127	0xbdac2f48	-0.08407456
128	0xbdb4c275	-0.08826152
129	0xbd4348bb	-0.047676783
130	0x3d0c8b71	0.03431267
131	0xbd2f19be	-0.04274916
132	0xbd7f7c5f	-0.06237447
133	0x3c6b59d7	0.014364681
134	0x3d13f430	0.036121547
135	0xbd9eb40e	-0.077491865
136	0xbcdd14f8	-0.026987538
137	0x3d79eff4	0.061019853
138	0x3d78fb4c	0.06078653
139	0x3b9c1df1	0.0047643115
140	0x3c4404cb	0.011964033
141	0x3d5f256a	0.05447904
142	0xbd0912a8	-0.033465058
143	0xbc636a24	-0.013880286
144	0xbd2d4efb	-0.04231165
145	0xba9651bb	-0.0011468449
146	0x3caea43f	0.021318553
147	0xbce24119	-0.027618932
148	0x3c06ff1b	0.008239533
149	0xbc7926c1	-0.015206994
150	0x3c4322b5	0.01191013
151	0x3d8e7960	0.06956744
152	0xbd232ccf	-0.039837655
153	0xbd1e5b96	-0.038661562
154	0x3d62753f	0.055287596
155	0x3d0d4550	0.03448993
156	0x3ca37c99	0.019956874
157	0xbd622cb4	-0.055218413
158	0xbd80a5a9	-0.06281597
159	0xbd569c1e	-0.05239498
160	0xbb563c01	-0.0032689574
161	0x3d98006c	0.074219555
162	0x3d96efab	0.07369932
163	0xbdba88b9	-0.09108109
164	0x3cd065bd	0.025439138
165	0xbdd08d1c	-0.101831645
166	0xbe479215	-0.1948932
167	0x3d867f74	0.065672785
168	0xbbd8e8a7	-0.006619531
169	0xbd9da121	-0.076967485
170	0x3e0ea504	0.13930136
171	0x3d75aea1	0.059980992
172	0xbc1d4ff9	-0.0096015865
173	0x3d5dd6a4	0.054159775
174	0x3dde6ed1	0.1086098
175	0xbd7d6d12	-0.061871596
176	0xbcd2c370	-0.025727957
177	0x3d804a58	0.0626418
178	0x3e14a85e	0.14517352
179	0x3c8c73c9	0.017145054
180	0x3da29b40	0.07939768
181	0x3db4bb62	0.08824803
182	0xbd6e6baf	-0.058208164
183	0xbdbac439	-0.09119458
184	0xbd3b4403	-0.045719158
185	0xbb8bb259	-0.004263204
186	0xbce320f8	-0.027725682
187	0xbcf617a1	-0.030040564
188	0xbb342040	-0.0027485043
189	0x3a945545	0.0011316916
190	0x3d4eacaa	0.050457634
191	0xbd211bb8	-0.039333075
192	0xbe919f7f	-0.28441998
193	0xbe59024d	-0.21192284
194	0xbe1bc985	-0.15213592
195	0xbdcb5496	-0.09928243
196	0xbb6bc930	-0.0035978071
197	0xbcdf7d1e	-0.02728134
198	0xbc217e0d	-0.009856713
199	0xbcca5f0a	-0.024703521
200	0xbd57a553	-0.0526479
201	0xbc79de45	-0.015250747
202	0x3d343d5f	0.04400384
203	0xbc6b5d96	-0.014365574
204	0xbd130076	-0.03588911
205	0x3d1667ca	0.036720075
206	0x3c8aea44	0.01695741
207	0x3c00486d	0.007829768
208	0x3d1546b1	0.03644437
209	0xbd521d5f	-0.05129754
210	0x3c380303	0.011231187
211	0x3c747556	0.014920553
212	0x39174bc7	0.00014428711
213	0xbcdc1e8e	-0.026870038
214	0xbe2cf179	-0.1688899
215	0xbd92aff9	-0.0716247
216	0xbe600765	-0.21877821
217	0xbd1a7550	-0.037709534
218	0x3d8698d9	0.06572122
219	0x3dac4ef5	0.08413497
220	0xbe0cb8ef	-0.13742422
221	0x3c0feba8	0.008784212
222	0x3d47e62f	0.048803505
223	0xbdf6a3b0	-0.1204294
224	0xbd9cb11e	-0.0765097
225	0x3d25bf7d	0.04046582
226	0x3c51e2d1	0.012810425
227	0xbd86295d	-0.06550858
228	0x3d3b7959	0.045770023
229	0x3da82c95	0.08211628
230	0xbd5fe327	-0.05465999
231	0xbd97ee6c	-0.07418522
232	0x3d9e2fc4	0.07723954
233	0x3caa31ba	0.020775665
234	0xbe08cef8	-0.13360202
235	0xbd5d5fb3	-0.054046344
236	0x3c1e13e3	0.009648296
237	0xbdd2561d	-0.10270331
238	0x3cbd5aaa	0.023114521
239	0x3d9ecbfd	0.077537514
240	0xbdb14620	-0.086559534
241	0xbe318b20	-0.17338228
242	0xbe2671c8	-0.16254342
243	0xbd680a1d	-0.05665027
244	0xbb80465b	-0.003914637
245	0xbd880864	-0.066422254
246	0xbcbd0833	-0.023075199
247	0xbd376744	-0.044776216
248	0xbd82baf8	-0.06383318
249	0xbd151eb0	-0.03640622
250	0xbe22a27f	-0.158823
251	0xbd385e97	-0.045012083
252	0x3d89e433	0.06732979
253	0x3ce8466e	0.028353896
254	0xbc78faba	-0.015196497
255	0xbc09a55d	-0.008401242

fc.bias f4 [10]
0	0x3c6b04a3	0.014344367
1	0x3d29e4a6	0.04147782
2	0x3c84e81c	0.01622396
3	0xbca2ecfc	-0.019888394
4	0xbd179d33	-0.03701515
5	0x3c25926a	0.010105709
6	0xbc97b3f2	-0.018518422
7	0xba8ceb23	-0.0010751229
8	0xbb2b52bf	-0.002614185
9	0xbccb7b7d	-0.024839157
